…
ol":"bash","type":"assistant","uuid":"d31ee081-c4c6-4fe5-8f2b-325d77f86a1b","timestamp":"2026-07-04T05:32:02.228Z","userType":"external","entrypoint":"sdk-cli","cwd":"/app","sessionId":"495f9979-5418-4f80-bd65-43a23d9fccdb","version":"2.1.197","gitBranch":"HEAD"}
{"parentUuid":"d31ee081-c4c6-4fe5-8f2b-325d77f86a1b","isSidechain":false,"promptId":"75450b04-9c1b-4432-b7df-90f54711b723","type":"user","message":{"role":"user","content":[{"tool_use_id":"toolu_015EuTMaT7umKCPk7JTEUj87","type":"tool_result","content":[{"type":"text","text":"LlamaForCausalLM(\n  (model): LlamaModel(\n    (embed_tokens): Embedding(128, 64)\n    (layers): ModuleList(\n      (0-5): 6 x LlamaDecoderLayer(\n        (self_attn): LlamaAttention(\n          (q_proj): Linear(in_features=64, out_features=64, bias=False)\n          (k_proj): Linear(in_features=64, out_features=64, bias=False)\n          (v_proj): Linear(in_features=64, out_features=64, bias=False)\n          (o_proj): Linear(in_features=64, out_features=64, bias=False)\n        )\n        (mlp): LlamaMLP(\n          (gate_proj): Linear(in_features=64, out_features=128, bias=False)\n          (up_proj): Linear(in_features=64, out_features=128, bias=False)\n          (down_proj): Linear(in_features=128, out_features=64, bias=False)\n          (act_fn): SiLUActivation()\n        )\n        (input_layernorm): LlamaRMSNorm((64,), eps=1e-06)\n        (post_attention_layernorm): LlamaRMSNorm((64,), eps=1e-06)\n      )\n    )\n    (norm): LlamaRMSNorm((64,), eps=1e-06)\n    (rotary_emb): LlamaRotaryEmbedding()\n  )\n  (lm_head): Linear(in_features=64, out_features=128, bias=False)\n)"}]}]},"uuid":"95205b24-bc89-419f-b430-f65e71f6f49d","timestamp":"2026-07-04T05:32:04.592Z","toolUseResult":[{"type":"text","text":"LlamaForCausalLM(\n  (model): LlamaModel(\n    (embed_tokens): Embedding(128, 64)\n    (layers): ModuleList(\n      (0-5): 6 x LlamaDecoderLayer(\n        (self_attn): LlamaAttention(\n          (q_proj): Linear(in_features=64, out_features=64, bias=False)\n          (k_proj): Linear(in_features=64, out_features=64, bias=False)\n          (v_proj): Linear(in_features=64, out_features=64, bias=False)\n          (o_proj): Linear(in_features=64, out_features=64, bias=False)\n        )\n        (mlp): LlamaMLP(\n          (gate_proj): Linear(in_features=64, out_features=128, bias=False)\n          (up_proj): Linear(in_features=64, out_features=128, bias=False)\n          (down_proj): Linear(in_features=128, out_features=64, bias=False)\n          (act_fn): SiLUActivation()\n        )\n        (input_layernorm): LlamaRMSNorm((64,), eps=1e-06)\n        (post_attention_layernorm): LlamaRMSNorm((64,), eps=1e-06)\n      )\n    )\n    (norm): LlamaRMSNorm((64,), eps=1e-06)\n    (rotary_emb): LlamaRotaryEmbedding()\n  )\n  (lm_head): Linear(in_features=64, out_features=128, bias=False)\n)"}],"sourceToolAssistantUUID":"d31ee081-c4c6-4fe5-8f2b-325d77f86a1b","userType":"external","entrypoint":"sdk-cli","cwd":"/app","sessionId":"495f9979-5418-4f80-bd65-43a23d9fccdb","version":"2.1.197","gitBranch":"HEAD"}
{"parentUuid":"95205b24-bc89-419f-b430-f65e71f6f49d","isSidechain":false,"message":{"model":"claude-opus-4-8","id":"msg_017Sie2xUPYfTz
…
